Namespace(batchSize=32, cuda=True, data='BSDS300', lr=0.001, model=4, nEpochs=500, testBatchSize=100, threads=12, upscale_factor=2)===> Loading datasets===> Building modelDataParallel (
  (module): Net(
    (relu): ReLU()
    (conv1): Conv2d(1, 32, kernel_size=(5, 5), stride=(1, 1), padding=(2, 2))
    (convdw2): Conv2d(32, 32, kernel_size=(3, 3), stride=(1, 1), padding=(1, 1), groups=32)
    (convpw2): Conv2d(32, 32, kernel_size=(1, 1), stride=(1, 1))
    (convdw3): Conv2d(32, 32, kernel_size=(3, 3), stride=(1, 1), padding=(1, 1), groups=32)
    (convpw3): Conv2d(32, 64, kernel_size=(1, 1), stride=(1, 1))
    (convdw4): Conv2d(64, 64, kernel_size=(3, 3), stride=(1, 1), padding=(1, 1), groups=64)
    (convpw4): Conv2d(64, 64, kernel_size=(1, 1), stride=(1, 1))
    (convdw5): Conv2d(64, 64, kernel_size=(3, 3), stride=(1, 1), padding=(1, 1), groups=64)
    (convpw5): Conv2d(64, 32, kernel_size=(1, 1), stride=(1, 1))
    (conv6): Conv2d(32, 4, kernel_size=(3, 3), stride=(1, 1), padding=(1, 1))
    (pixel_shuffle): PixelShuffle(upscale_factor=2)
  ), weights=((32, 1, 5, 5), (32,), (32, 1, 3, 3), (32,), (32, 32, 1, 1), (32,), (32, 1, 3, 3), (32,), (64, 32, 1, 1), (64,), (64, 1, 3, 3), (64,), (64, 64, 1, 1), (64,), (64, 1, 3, 3), (64,), (32, 64, 1, 1), (32,), (4, 32, 3, 3), (4,)), parameters=13316
)Num of parameters 13316===> Epoch[
…
